rl/logs/rsl_rl/test_ctbr/2025-02-08_15-44-09/exported/policy.pt (torch, 569254 bytes, 8 tensors)

weight f4 [256, 26]
-0.025748 0.06093452 -0.21367216 -0.12278611 -0.09134726 0.094195664 -0.052908264 0.30283588
0.03623884 0.094608895 -0.041214965 0.0017402683 -0.19140871 -0.07430176 -0.031820837 -0.07673585
0.07923118 -0.029662533 -0.11872096 -0.12944631 0.017589783 0.07300741 -0.02074437 0.07503533
-0.022723448 0.046540376 0.123966895 -0.16459045 -0.18085708 -0.048160736 -0.08736941 0.25017896
-0.048908167 -0.0200263 -0.11319797 -0.15566671 -0.113041036 0.31961203 0.03974337 0.19793138
-0.06789557 -0.15565862 -0.0023539057 -0.25336552 -0.17010015 -0.12892123 0.09992043 0.09417508
-0.08712183 0.021807706 0.14394319 0.22329237 0.04752296 0.026840718 0.14107828 -0.0997377
0.0448925 -0.18795553 -0.21960728 -0.17692557 0.11822484 0.09858701 -0.0959924 0.033022955
0.019029628 -0.053978346 0.091169775 0.031624515 0.045386214 0.2639243 -0.107679665 -0.24372481
0.04758811 0.1523137 0.13343649 0.21515892 0.047883462 -0.17454536 0.0027156505 -0.1169755
-0.20533943 0.17593051 0.13623777 -0.16575366 0.0489527 -0.14131226 -0.064817645 -0.07519929
0.10615476 -0.08525254 0.057784602 0.07608766 0.12814867 0.13193636 -0.18189313 -0.01894517
0.104583904 0.12470548 -0.1204424 -0.12773307 0.20527047 0.14537425 -0.056619577 -0.028799025
-0.25659573 -0.036594663 -0.08677916 -0.14512306 -0.040982585 0.043370627 -0.30692247 0.07955142
-0.117892094 0.24095464 0.16859473 -0.3056215 -0.04911732 -0.002718191 0.2552206 0.01576655
0.08540197 0.048567414 -0.12907776 0.11486515 -0.18957706 -0.06023213 0.032905724 -0.02856424
-0.001298151 -0.16145514 -0.0074636084 -0.0021163574 -0.14572813 -0.019522158 0.1518124 -0.038979717
0.15674508 -0.08176034 0.051942226 -0.012991239 0.25400734 0.21407951 0.1685216 0.0016527578
-0.3274703 -0.04671384 0.12692961 0.06357014 -0.1281447 -0.24012882 -0.19578767 -0.16088414
-0.03888999 0.092446394 0.06603609 -0.15886685 0.10516075 -0.093693964 -0.07385595 -0.073903956
-0.053139273 -0.059485458 -0.25337148 -0.061976247 -0.021742404 0.0014659188 -0.1030957 0.082257986
-0.17420325 -0.10949444 0.24985461 -0.027681679 0.18010804 -0.036333982 -0.13623069 0.27751133
-0.03157679 -0.062234804 0.14839864 -0.1484261 -0.008616378 -0.047071137 0.1404775 0.13117692
0.083536886 0.038345125 -0.04678345 -0.047548227 -0.1541623 0.18920243 0.1287731 0.14275464
-0.17422119 0.0011775843 -0.08425302 -0.09882246 -0.12173218 0.050517015 -0.03621116 -0.087216854
-0.04061286 0.14933048 -0.121309415 -0.10516708 -0.15780091 0.08928812 -0.059121173 0.1516666
0.0745701 -0.034598965 0.033236325 0.0020310986 0.011800895 -0.009160628 -0.003945238 -0.13573968
-0.19621171 -0.091186635 0.2062216 -0.24137165 -0.0010716479 0.15508048 0.073410824 0.04206227
-0.15336952 0.2579137 -0.17667715 -0.23574814 -0.022991976 -0.0075992793 0.033426236 0.17479874
0.014313211 0.12143525 0.16229346 -0.18056469 0.12759227 -0.13526726 -0.044297677 0.032989185
0.09084486 0.015461839 -0.06992292 -0.05666741 0.14052872 -0.2980324 0.14765622 -0.23274289
-0.023386637 0.0026063474 -0.080653094 0.15759118 0.1439548 -0.09128714 -0.109643325 -0.06530695
00000000: 78ed d2bc 7a96 793d e0cc 5abe 4977 fbbd
00000010: 4614 bbbd a8e9 c03d 56b6 58bd 4e0d 9b3e
00000020: 2e6f 143d 4fc2 c13d 06d1 28bd b719 e43a
00000030: a500 44be 852b 98bd 9156 02bd af27 9dbd
00000040: f543 a23d d7fe f2bc fa23 f3bd 938d 04be
00000050: 7318 903c e984 953d 19f0 a9bc 20ac 993d
00000060: 8626 babc 1fa1 3e3d 5be2 fd3d 668a 28be
00000070: 9932 39be 3144 45bd bcee b2bd 7517 803e
00000080: ee53 48bd 320e a4bc 56d4 e7bd 1867 1fbe
00000090: 0f82 e7bd 30a4 a33e f2c9 223d 86ae 4a3e
000000a0: d50c 8bbd f964 1fbe fc43 1abb 20b9 81be
000000b0: bc2e 2ebe ed03 04be 15a3 cc3d ddde c03d
000000c0: ee6c b2bd 13a6 b23c d865 133e c1a6 643e
000000d0: 6fa7 423d 11e1 db3c d376 103e 4743 ccbd
000000e0: 33e1 373d 6a77 40be bbe0 60be fa2b 35be
000000f0: dd1f f23d fce7 c93d aa97 c4bd 1443 073d
00000100: 06e4 9b3c 6618 5dbd 38b7 ba3d b588 013d
00000110: e5e6 393d 1621 873e 2887 dcbd ff92 79be
00000120: c0eb 423d 1ff8 1b3e 93a3 083e 9f52 5c3e
00000130: 7321 443d 05bc 32be 0ef9 313b da90 efbd
00000140: 8044 52be 2127 343e ea81 0b3e 54bb 29be
00000150: a082 483d 29b4 10be 1dbf 84bd 1602 9abd
00000160: ab67 d93d e298 aebd 8caf 6c3d d9d3 9b3d
00000170: 6839 033e 531a 073e 3142 3abe e732 9bbc
00000180: 1630 d63d 9665 ff3d 81aa f6bd 75cc 02be
00000190: 6c32 523e fddc 143e eee9 67bd efeb ebbc
000001a0: 8460 83be 49e4 15bd 46b9 b1bd 249b 14be
000001b0: 5bdd 27bd 66a5 313d f124 9dbe dbeb a23d
000001c0: 6971 f1bd d0bc 763e 19a4 2c3e 6c7a 9cbe
000001d0: 3e2f 49bd ad23 32bb 46ac 823e da28 813c
000001e0: 3ae7 ae3d a0ee 463d f62c 04be 6b3e eb3d
000001f0: 7d20 42be f7b5 76bd 27c8 063d 8eff e9bc
00000200: b826 aaba 7f54 25be 4991 f4bb 96b2 0abb
00000210: c139 15be efec 9fbc b674 1b3e 32a9 1fbd
00000220: c881 203e f771 a7bd 5fc1 543d 35d9 54bc
00000230: 400d 823e a937 5b3e ed90 2c3e 59a1 d83a
00000240: 30aa a7be 0357 3fbd d6f9 013e 1031 823d
00000250: 5d38 03be 54e4 75be 907c 48be d0be 24be
00000260: 1c4b 1fbd 8954 bd3d ee3d 873d fead 22be
00000270: 855e d73d 9fe2 bfbd ca41 97bd f55a 97bd
00000280: 91a8 59bd 06a7 73bd e8b9 81be ceda 7dbd
00000290: 201d b2bc 1324 c03a d723 d3bd e076 a83d
000002a0: 5662 32be 9f3e e0bd e3d9 7f3e b0c4 e2bc
000002b0: 3e6e 383e f1d2 14bd 0f80 0bbe f715 8e3e
000002c0: aa56 01bd ece9 7ebd d0f5 173e 03fd 17be
000002d0: b52b 0dbc aacd 40bd 55d9 0f3e 3e53 063e
000002e0: 6315 ab3d c70f 1d3d 01a0 3fbd eec1 42bd
000002f0: b9dc 1dbe 48be 413e 18dd 033e 462e 123e
00000300: 0a67 32be 2c59 9a3a d98c acbd 6e63 cabd
00000310: b94e f9bd eeea 4e3d 2752 14bd c09e b2bd
00000320: ac59 26bd 17ea 183e 1271 f8bd d761 d7bd
00000330: 9096 21be b1dc b63d 0b29 72bd 7d4e 1b3e
00000340: 35b8 983d a5b7 0dbd d022 083d 2e1c 053b
00000350: 8b58 413c 7516 16bc 0e47 81bb 58ff 0abe
00000360: b9eb 48be 0fc0 babd c12b 533e 212a 77be
00000370: 8976 8cba 6bcd 1e3e 6a58 963d 7d49 2c3d
00000380: e60c 1dbe 440d 843e dbea 34be f667 71be
00000390: ab59 bcbc 6003 f9bb f3e9 083d 71fe 323e
000003a0: f581 6a3c 0bb3 f83d 4230 263e f3e5 38be
000003b0: 8ca7 023e 8083 0abe 7b71 35bd ab1f 073d
000003c0: df0c ba3d a753 7d3c bf33 8fbd 161c 68bd
000003d0: c3e6 0f3e b497 98be 3133 173e 2754 6ebe
000003e0: 5595 bfbc 41cf 2a3b 732d a5bd 955f 213e
000003f0: e368 133e c1f4 babd ae8c e0bd a6bf 85bd

bias f4 [256]
0.14112954 -0.082736075 0.1281025 -0.023061508 0.049135003 -0.008074115 0.006474057 0.04374303
-0.13185441 0.0424551 0.20187843 0.040105343 -0.186079 0.031509284 -0.09432351 0.02943876
-0.17278796 0.067929626 -0.11754422 0.055790912 0.13040315 0.11940002 -0.029745812 0.1441537
0.013040852 -0.10747364 0.08392726 -0.027826453 -0.10540919 0.06316637 0.15782927 0.10623302
-0.03434465 -0.145674 0.11512208 -0.06487792 0.007477856 -0.1271519 0.14489761 0.040143754
0.13475434 0.07991144 -0.16685385 0.12087626 -0.15586677 -0.13986246 0.092319705 -0.07541543
0.030776586 0.05690571 0.03459527 -0.118023336 0.15912773 -0.02916295 0.084565304 0.00593591
-0.0945497 -0.049419455 0.095858596 -0.14092037 -0.122351594 -0.14056922 -0.14592464 -0.024576338
-0.041051883 0.009127651 0.07255987 0.064696416 0.14545439 0.0023049947 0.14266378 0.023375442
0.0031965896 0.047196187 -0.10248912 0.18808031 0.1585531 -0.18299158 -0.086207375 0.12214677
0.025619153 -0.071536504 -0.12426302 0.0021151996 -0.01719951 0.15471432 -0.10598253 0.03405974
0.07816924 -0.04906711 -0.022275927 -0.04579246 0.13956864 0.063075386 -0.02687479 -0.102853246
-0.0962233 -0.09002654 0.120848894 0.11574988 0.036797963 -0.18011671 0.050764877 -0.1370895
0.11616407 0.13025035 0.14017206 0.01703785 0.0055140452 0.016521463 0.15044515 0.10298742
0.04953884 -0.015435419 -0.0450236 0.108766526 -0.06337691 0.017618733 0.0823744 0.11461005
-0.10514851 -0.02706504 -0.041740466 -0.054053932 -0.112055786 0.10279004 -0.14079702 -0.06474357
0.07613902 0.12940839 0.023317538 -0.09164333 -0.06576502 -0.0060060313 -0.08788851 0.109475195
0.044174902 0.16645125 0.15215534 -0.00045615225 0.033810757 -0.02768373 0.092050515 -0.102337375
0.14456594 -0.054343253 0.10623741 0.107868515 -0.061904155 0.14334382 -0.008075174 0.12852143
-0.020062393 -0.1775006 -0.06730197 0.033457614 0.134991 -0.14626774 -0.09574411 0.1106945
-0.083223455 -0.04039852 -0.15656102 -0.028011259 -0.081427366 0.064224824 0.11482075 -0.017014354
-0.17705493 0.13066468 0.113634154 -0.16499552 0.108897105 -0.14993301 0.07762435 -0.040568974
0.016151806 -0.07037532 0.1015452 0.015820341 -0.018928932 0.015475597 0.14117666 0.15238872
-0.0689203 -0.16311516 -0.12700427 -0.08935182 -0.15356025 -0.08203409 -0.04596891 0.031479772
0.072615616 0.15200847 -0.13841082 -0.110301025 -0.087556146 -0.19905902 0.0254685 -0.09330895
0.01585142 -0.018886743 -0.0891306 -0.09106735 0.06270486 -0.10356573 -0.1650343 0.15007725
-0.074655 -0.0025953718 0.156321 0.08420901 -0.15656914 0.15134634 -0.09844933 0.05791784
0.1218965 0.076856665 0.117038965 -0.05943424 0.14288116 0.117628686 -0.15435089 -0.08747131
0.1155761 -0.09913436 -0.14421025 0.08158848 0.040365748 0.021561597 0.13913977 -0.040893596
0.16121472 -0.17126454 -0.20482706 -0.024725849 0.1939754 -0.13769694 0.022950763 0.055758912
-0.09606358 -0.22346735 0.09948153 0.07734617 -0.048628457 0.06003059 0.107473835 -0.07102407
-0.12922007 -0.041937128 -0.04066732 -0.07015323 0.08485309 -0.18336819 0.17290102 -0.03462506
00000000: 4384 103e 8871 a9bd 4d2d 033e 7deb bcbc
00000010: c941 493d 4b49 04bc 5424 d43b e42b 333d
00000020: d804 07be 66e5 2d3d 38b9 4e3e 8045 243d
00000030: 7e8b 3ebe e10f 013d af2c c1bd 8e29 f13c
00000040: 54ef 30be b01e 8b3d 06bb f0bd 0385 643d
00000050: 6788 053e ff87 f43d 7dad f3bc 079d 133e
00000060: 4ca9 553c 241b dcbd 0ee2 ab3d 4df4 e3bc
00000070: c6e0 d7bd 5f5d 813d ff9d 213e b390 d93d
00000080: faac 0cbd 912b 15be 20c5 eb3d b7de 84bd
00000090: cd08 f53b 1c34 02be 0a60 143e c76d 243d
000000a0: 0bfd 093e 9ca8 a33d bcdb 2abe f98d f73d
000000b0: 8a9b 1fbe 1b38 0fbe 1d12 bd3d 6873 9abd
000000c0: 2e1f fc3c f615 693d c5b3 0d3d 38b6 f1bd
000000d0: 61f2 223e 24e7 eebc 9330 ad3d 0682 c23b
000000e0: 46a3 c1bd 0e6c 4abd 8351 c43d 6e4d 10be
000000f0: 7993 fabd 61f1 0fbe 456d 15be 5154 c9bc
00000100: 0526 28bd 258c 153c 459a 943d 8e7f 843d
00000110: fff1 143e 650f 173b 7416 123e db7d bf3c
00000120: e07d 513b ca50 413d d1e5 d1bd 2098 403e
00000130: be5b 223e 2562 3bbe 7e8d b0bd 1628 fa3d
00000140: 42df d13c bb81 92bd 9c7d febd 299f 0a3b
00000150: fde5 8cbc 6e6d 1e3e 5e0d d9bd 3a82 0b3d
00000160: 3217 a03d 98fa 48bd 017c b6bc e090 3bbd
00000170: 15eb 0e3e ab2d 813d 8528 dcbc b9a4 d2bd
00000180: b910 c5bd d65f b8bd a07f f73d 460e ed3d
00000190: 76b9 163d 8470 38be d5ee 4f3d 3161 0cbe
000001a0: 6ee7 ed3d 5960 053e 4489 0f3e f692 8b3c
000001b0: 2aaf b43b 0558 873c 4b0e 1a3e 12eb d23d
000001c0: 3de9 4a3d d7e4 7cbc ab6a 38bd fcc0 de3d
000001d0: c1cb 81bd 2955 903c e9b3 a83d adb8 ea3d
000001e0: 1a58 d7bd 81b7 ddbc 0df8 2abd a867 5dbd
000001f0: 817d e5bd 9683 d23d 182d 10be 4798 84bd
00000200: c6ee 9b3d a283 043e 6c04 bf3c 80af bbbd
00000210: d0af 86bd 3ece c4bb e4fe b3bd 8834 e03d
00000220: bef0 343d 3272 2a3e 9cce 1b3e b827 efb9
00000230: 267d 0a3d fdc8 e2bc fb84 bc3d 4296 d1bd
00000240: 1809 143e 0897 5ebd 0093 d93d 2bea dc3d
00000250: 368f 7dbd b9c8 123e bc4d 04bc 1f9b 033e
00000260: e359 a4bc b8c2 35be 9ed5 89bd da0a 093d
00000270: 153b 0a3e 36c7 15be 7d15 c4bd ccb3 e23d
00000280: 0f71 aabd eb78 25bd 8851 20be de77 e5bc
00000290: 64c3 a6bd 4e88 833d 2427 eb3d b061 8bbc
000002a0: e34d 35be f6cc 053e 06b9 e83d 96f4 28be
000002b0: 7205 df3d 0a88 19be 84f9 9e3d a72b 26bd
000002c0: cb50 843c f020 90bd eef6 cf3d a999 813c
000002d0: d910 9bbc 5c8d 7d3c 9d90 103e ca0b 1c3e
000002e0: 1626 8dbd a907 27be 680d 02be 16fe b6bd
000002f0: e63e 1dbe 7d01 a8bd e549 3cbd eff0 003d
00000300: 7fb7 943d 1ca8 1b3e 91bb 0dbe 81e5 e1bd
00000310: a350 b3bd 21d6 4bbe 51a3 d03c c318 bfbd
00000320: d6da 813c 5fb8 9abc 1b8a b6bd 8581 babd
00000330: 686b 803d 451a d4bd c0fe 28be daad 193e
00000340: b8e4 98bd 1d17 2abb 9d12 203e c675 ac3d
00000350: a953 20be 89fa 1a3e cd9f c9bd 423b 6d3d
00000360: dfa4 f93d 0767 9d3d 20b2 ef3d 5171 73bd
00000370: 704f 123e 4fe7 f03d 290e 1ebe 2824 b3bd
00000380: 2ab3 ec3d f506 cbbd daab 13be dc17 a73d
00000390: 8e56 253d f2a1 b03c a87a 0e3e 0b80 27bd
000003a0: 7915 253e f95f 2fbe 2fbe 51be dd8d cabc
000003b0: 7da1 463e 6d00 0dbe 3d03 bc3c 7563 643d
000003c0: fbbc c4bd a0d4 64be f9bc cb3d ab67 9e3d
000003d0: a22e 47bd a3e2 753d 3e1b dc3d 1175 91bd
000003e0: 4452 04be 44c6 2bbd c792 26bd 7fac 8fbd
000003f0: 75c7 ad3d dfc4 3bbe f70c 313e 02d3 0dbd

weight f4 [256, 256]
-0.02131862 0.025397496 -0.077087305 -0.049850725 0.065531075 -0.026670689 -0.02067734 0.004659442
0.09736466 0.03907001 -0.045785636 0.069827594 -0.06124989 -0.027326047 -0.025238374 0.03569463
0.047689624 -0.017215617 -0.11917475 0.018034918 0.040485356 0.002442243 -0.0849991 -0.007919671
-0.023375168 -0.014245825 -0.060803283 0.062168695 -0.018599432 0.0148886135 0.005529538 -0.013486375
-0.038420126 0.0017605548 -0.04880652 0.01716946 0.020496551 -0.032534722 -0.032595366 0.015435591
-0.034911975 0.010262302 0.03480729 0.022331737 0.0036271682 0.03750091 0.006101688 -0.07475602
0.036166366 0.09052701 0.057269793 -0.02787531 0.02683101 -0.049190488 -0.05473104 0.045285802
-0.064482845 0.07218724 0.04073508 -0.063197054 0.026753584 -0.027419116 -0.036113225 -0.0064447215
0.0015503914 -0.019627996 0.054167707 0.076551095 -0.0061131823 -0.005919045 0.015846554 0.030549003
-0.006345258 0.008328226 0.038573403 0.06772805 0.01598043 0.027367342 -0.028639764 -0.0074150283
-0.013410935 -0.02568622 -0.036720272 0.047936037 -0.060272094 0.050046988 -0.011977026 0.0467907
-0.030951142 -0.023435822 -0.074433275 -0.04929577 0.02775562 -0.0019668853 0.046486482 0.06403287
0.000142147 -0.027719777 0.025490927 0.054957308 0.023534575 -0.05675053 0.04604834 0.011493559
-0.020923967 0.019665392 -0.0003509383 0.020368343 0.08508544 0.06288103 0.05462449 -0.00045904145
0.011082555 0.027195258 -0.047794733 0.05873319 0.033885855 -0.080020465 -0.027462047 0.055968247
0.00059559854 0.036235444 -0.069131926 0.0021844315 0.047283698 0.057635933 0.022022074 -0.10022425
0.04757757 0.029681187 0.01581766 0.07381845 0.039300833 -0.014181675 0.08200296 0.054192603
0.014671162 -0.09642862 0.039777122 -0.011184488 0.0747141 -0.03510223 -0.045879614 -0.029405747
-0.047694042 -0.030327858 -0.0038826808 0.035287097 0.004129001 -0.0880516 -0.058531374 0.0129360985
-0.028002568 -0.045181885 -0.033018764 -0.026132714 -0.017435003 0.010193819 0.019547088 0.08769091
-0.043337867 -0.044044033 0.008979916 0.029149624 -0.015776265 0.05642863 -0.027022863 -0.04390779
0.03393588 0.015745506 -0.041114796 -0.008334281 0.05194614 0.04793095 0.007853937 -0.029794833
-0.04924646 0.03218088 0.0020252743 -0.013075343 0.007361584 -0.00296129 0.006917133 -0.03224864
-0.059483953 -0.04656782 -0.039653633 0.040418617 -0.008788 0.040911414 -0.030453052 -0.04725474
-0.019050343 -0.016260957 0.016939992 -0.036568332 -0.05141052 0.020761793 0.0081466045 -0.0026359993
0.031878024 -0.025754744 0.05963521 -0.036333673 0.07446039 -0.07011364 -0.008234406 -0.049986374
0.0032088186 -0.027425546 -0.0049826074 0.02656585 0.03523859 0.013530003 -0.03664079 0.037927482
-0.023487382 -0.027715659 -0.031123448 0.06863674 0.022459645 0.014635304 -0.033694975 0.011155181
-0.065463886 -0.037975237 -0.031484194 0.041153833 -0.019993676 0.00048210562 0.054901246 0.08079874
0.045199554 -0.013988845 0.012938404 -0.02303878 -0.02954879 -0.00015333838 0.069283895 0.018405085
0.0033828893 -0.041742954 -0.07073122 0.03861247 0.0057053836 -0.02893026 0.009935647 0.011744024
0.018949352 0.057501853 0.034633543 0.02739462 -0.002788409 -0.050938115 0.09242375 -0.025639473
00000000: 63a4 aebc 690e d03c f3df 9dbd 4630 4cbd
00000010: 2835 863d 7d7c dabc 8663 a9bc 3cae 983b
00000020: 1f67 c73d e007 203d b889 3bbd c501 8f3d
00000030: 2ae1 7abd e0da dfbc b5c0 cebc 8834 123d
00000040: 3256 433d c407 8dbc e411 f4bd f7bd 933c
00000050: f9d3 253d 0a0e 203b 0214 aebd 82c1 01bc
00000060: 487d bfbc 5267 69bc dd0c 79bd 9aa4 7e3d
00000070: d65d 98bc 5fef 733c 2031 b53b f5f5 5cbc
00000080: 6c5e 1dbd 6bc2 e63a 58e9 47bd f8a6 8c3c
00000090: 62e8 a73c 2143 05bd b882 05bd 90e5 7c3c
000000a0: dcff 0ebd 3723 283c 1792 0e3d 0cf1 b63c
000000b0: c9b5 6d3b 8e9a 193d abf0 c73b af19 99bd
000000c0: 2f23 143d 3a66 b93d bb93 6a3d c35a e4bc
000000d0: b5cc db3c f77b 49bd a82d 60bd 9b7d 393d
000000e0: 950f 84bd e7d6 933d d4d9 263d 756d 81bd
000000f0: 552a db3c 0e9e e0bc 76eb 13bd 3e2e d3bb
00000100: 8136 cb3a e4ca a0bc f5de 5d3d d2c6 9c3d
00000110: 1751 c8bb 8cf4 c1bb a2d0 813c e741 fa3c
00000120: e2eb cfbb 1d73 083c 25ff 1d3d 01b5 8a3d
00000130: 64e9 823c 7a31 e03c f09d eabc c4f9 f2bb
00000140: 8ab9 5bbc e86b d2bc ff67 16bd 9458 443d
00000150: dfdf 76bd 12fe 4c3d 4a3b 44bc 9ba7 3f3d
00000160: 408d fdbc 7bfc bfbc 7970 98bd 5cea 49bd
00000170: c15f e33c dce6 00bb 9c68 3e3d aa23 833d
00000180: 4b0d 1539 9614 e3bc 59d2 d03c ea1a 613d
00000190: 95cb c03c 3e73 68bd 2f9d 3c3d 7b4f 3c3c
000001a0: bd68 abbc 5119 a13c 24fe b7b9 83db a63c
000001b0: 4641 ae3d c5c7 803d eebd 5f3d 80ab f0b9
000001c0: 9b93 353c 97c8 de3c 69c4 43bd 3792 703d
000001d0: e5cb 0a3d c5e1 a3bd 16f8 e0bc f63e 653d
000001e0: f121 1c3a 9e6b 143d 0a95 8dbd ae28 0f3b
000001f0: 8dac 413d a813 6c3d a367 b43c 5f42 cdbd
00000200: b3e0 423d f625 f33c 0a94 813c 212e 973d
00000210: e9f9 203d 425a 68bc 2bf1 a73d 10f9 5d3d
00000220: 505f 703c 5e7c c5bd 56ed 223d 253f 37bc
00000230: b503 993d 5bc7 0fbd 43ec 3bbd 52e4 f0bc
00000240: d45a 43bd 2172 f8bc 9374 7ebb 3489 103d
00000250: 924c 873b 6654 b4bd 98be 6fbd eef1 533c
00000260: a465 e5bc a410 39bd af3e 07bd 4614 d6bc
00000270: dad3 8ebc fa03 273c 3721 a03c 4b97 b33d
00000280: 0c83 31bd 8467 34bd 7f20 133c 31cb ee3c
00000290: 3a3d 81bc b521 673d 0d5f ddbc a8d8 33bd
000002a0: 5900 0b3d b8fc 803c fd67 28bd 828c 08bc
000002b0: 7ac5 543d 3e53 443d cdad 003c 4b14 f4bc
000002c0: a8b6 49bd 19d0 033d 77ba 043b f739 56bc
000002d0: 7139 f13b 3412 42bb 1ea9 e23b 2617 04bd
000002e0: 72a5 73bd e6bd 3ebd d96b 22bd fe8d 253d
000002f0: 8bfb 0fbc ba92 273d ae78 f9bc 308e 41bd
00000300: 770f 9cbc b335 85bc bdc5 8a3c adc8 15bd
00000310: d693 52bd a314 aa3c 5679 053c bbc0 2cbb
00000320: 8892 023d 9dfb d2bc 0d44 743d 9ed2 14bd
00000330: b07e 983d bd97 8fbd 9ae9 06bc 83be 4cbd
00000340: 0b4b 523b 8aab e0bc 2445 a3bb a0a0 d93c
00000350: 5756 103d f2ac 5d3c a714 16bd d959 1b3d
00000360: 9c68 c0bc f30b e3bc 9af6 febc 6b91 8c3d
00000370: 4afd b73c eac8 6f3c be03 0abd 38c4 363c
00000380: ee11 86bd ec8b 1bbd 92f5 00bd ec90 283d
00000390: c7c9 a3bc 1fc3 fc39 21e0 603d cf79 a53d
000003a0: 2b23 393d 7831 65bc 9afb 533c d3bb bcbc
000003b0: 4e10 f2bc 75c9 20b9 b7e4 8d3d 43c6 963c
000003c0: 77b3 5d3b a9fa 2abd 88db 90bd 1c28 1e3d
000003d0: 3af4 ba3b 27ff ecbc 20c9 223c 026a 403c
000003e0: ac3b 9b3c 1087 6b3d e7db 0d3d af6a e03c
000003f0: bdbd 36bb 7ca4 50bd aa48 bd3d df09 d2bc

bias f4 [256]
0.01599073 -0.04347689 -0.023575822 -0.0542348 0.028834706 -0.06460281 -0.04723828 0.035732128
-0.01098403 0.052927177 -0.033414934 -0.005453213 0.04046018 0.047767173 -0.0399405 -0.0107739875
0.011419747 0.022429677 0.016843876 -0.051819917 0.036615502 0.052640762 -0.00043678872 -0.020027114
0.02585029 -0.049636655 -0.040039416 0.066468544 0.036296226 0.04072656 0.008373744 -0.008235663
0.032006096 -0.05578806 0.022326346 0.05840507 0.039348353 0.024382737 -0.031837475 0.024442205
-0.048668504 -0.005910459 -0.010732 0.07174066 -0.031962745 -0.028198292 0.003890007 0.023984767
0.015415624 -0.000697184 0.008267708 0.04667426 0.029755974 0.05479998 -0.03139962 -0.07122745
-0.056966655 -0.06313854 -0.05204661 -0.04146586 0.02359936 -0.045681287 0.0491882 -0.015338873
-0.057852868 -0.060297478 0.024847215 -0.013711561 0.019110043 -0.04933354 -0.037242338 -0.049443472
-0.03054691 -0.065213986 -0.012273657 0.0069424994 -0.028165586 0.01818918 -0.040797837 0.050820995
0.049206894 0.0017765699 -0.043043643 0.021657983 -0.011332848 -0.049625758 0.009419633 0.008140863
-0.037709437 -0.024971388 0.0093311565 0.020041956 -0.016011635 -0.038347367 -0.009845475 0.038468644
-0.032465942 -0.06972909 0.012000067 -0.046245523 0.011960605 0.033848915 0.013187377 0.022881523
-0.020222116 -0.02091258 0.024342578 -0.032224473 0.019553995 0.021105194 -0.05694576 0.05988154
0.049303643 0.0019710448 0.037056558 -0.027408693 0.059405968 0.027389146 -0.01846341 0.007733328
-0.006681252 -0.054229986 0.0053552203 0.022780394 -0.0567107 0.03346975 -0.011747107 -0.044618223
0.044512182 0.018552016 0.044234466 -0.06818569 0.0162301 -0.03784918 -0.07598227 -0.07011339
0.024385681 -0.0010988603 0.024271864 0.018767899 -0.01896028 -0.032448296 -0.009544949 -0.047955804
0.000669292 0.007441774 -0.014180117 -0.046347234 -0.09338686 -0.032214064 -0.040704712 0.023359904
-0.029129185 0.0011217091 0.040415026 0.025756525 -0.08094628 -0.0369311 0.077962734 0.0005204534
-0.011918421 0.00080245384 0.02594093 0.041010257 -0.0010500643 -0.010890275 -0.0082075 0.0017520277
0.040625867 -0.024087656 0.04274283 -0.049973726 -0.0028658428 -0.020039735 0.0519925 -0.024149239
-0.028858284 -0.00290995 0.027748702 0.029186841 -0.018625263 0.005370827 -0.0034441953 0.037598457
0.00090465636 -0.054766577 0.012710062 -0.036681406 -0.0049402756 0.040736087 -0.048895672 0.0044566737
0.034135286 0.008748915 -0.038736824 0.033277415 -0.054190658 -0.002683569 0.05324584 0.032566693
-0.018962054 -0.027886959 -0.006822919 -0.011165445 0.047860447 0.00747156 0.002855464 -0.012523376
-0.04282235 -0.061735895 0.051448252 -0.05333102 0.041604742 -0.04994672 -0.05928862 0.025920898
-0.047811765 0.008154388 -0.019574372 0.01174687 -0.072127566 -0.030932883 0.0435693 0.016741613
0.028200088 0.023991784 -0.046137094 -0.0676705 -0.036994975 0.018686028 -0.011127555 0.01925017
-0.050033 -0.018045329 0.012066731 0.020786213 -0.008030368 0.048505034 0.041179292 -0.030489417
0.021843066 0.019609762 -0.058493342 0.035100333 -0.0038097845 -0.036187634 0.05151206 0.044712093
0.0016183233 -0.04939854 -0.04123009 -0.029770115 0.0010064627 -0.0007993476 -0.033704847 -0.04829668
00000000: fefe 823c d314 32bd 1522 c1bc 4f25 5ebd
00000010: c336 ec3c 7a4e 84bd ed7c 41bd da5b 123d
00000020: 5cf6 33bc 2bca 583d 19de 08bd deb0 b2bb
00000030: 93b9 253d 83a7 433d a698 23bd 6185 30bc
00000040: e419 3b3c 71be b73c 2bfc 893c 1f41 54bd
00000050: 23fa 153d d79d 573d ca00 e5b9 e70f a4bc
00000060: fdc3 d33c ce4f 4bbd 5f00 24bd a920 883d
00000070: 5aab 143d e5d0 263d 0732 093c e0ee 06bc
00000080: d318 033d 0582 64bd bee5 b63c 283a 6f3d
00000090: bd2b 213d 4ebe c73c 0368 02bd 053b c83c
000000a0: a058 47bd 86ac c1bb 45d5 2fbc c4ec 923d
000000b0: 5eeb 02bd 1b00 e7bc 7def 7e3b b47b c43c
000000c0: d091 7c3c 3ac3 36ba 4875 073c 822d 3f3d
000000d0: cdc2 f33c f275 603d e39c 00bd b3df 91bd
000000e0: de55 69bd c74e 81bd d32e 55bd 1bd8 29bd
000000f0: 7253 c13c 4d1c 3bbd 9179 493d e54f 7bbc
00000100: 21f7 6cbd 7dfa 76bd 638c cb3c 75a6 60bc
00000110: aa8c 9c3c f711 4abd 6c8b 18bd 3d85 4abd
00000120: 833d fabc e98e 85bd 7317 49bc e87d e33b
00000130: 84bb e6bc 7a01 953c a21b 27bd ad29 503d
00000140: 2b8d 493d cbdb e83a 884e 30bd 156c b13c
00000150: 69ad 39bc 6144 4bbd ce54 1a3c 4161 053c
00000160: 3675 1abd cc90 ccbc b5e1 183c 072f a43c
00000170: d52a 83bc 2112 1dbd ea4e 21bc 4c91 1d3d
00000180: 02fb 04bd 20ce 8ebd ee9b 443c f26b 3dbd
00000190: 6af6 433c 29a5 0a3d de0f 583c 0872 bb3c
000001a0: daa8 a5bc dc50 abbc 166a c73c cffd 03bd
000001b0: b32f a03c cde4 ac3c f53f 69bd 5846 753d
000001c0: 9ef2 493d a52c 013b 9ec8 173d 3288 e0bc
000001d0: ac53 733d 345f e03c 9440 97bc db67 fd3b
000001e0: 67ee dabb 4320 5ebd d87a af3b f39d ba3c
000001f0: 7b49 68bd 9417 093d f076 40bc 99c1 36bd
00000200: 6852 363d 66fa 973c 332f 353d f0a4 8bbd
00000210: fdf4 843c be07 1bbd 989c 9bbd 9c97 8fbd
00000220: 7bc4 c73c a207 90ba cad5 c63c 23bf 993c
00000230: 9752 9bbc 81e8 04bd 6b62 1cbc 4e6d 44bd
00000240: 6d73 2f3a 20da f33b b953 68bc 99d6 3dbd
00000250: 9c41 bfbd e5f2 03bd fcb9 26bd 455d bf3c
00000260: 54a0 eebc 5006 933a 3a8a 253d 59ff d23c
00000270: 2ac7 a5bd 1145 17bd edaa 9f3d 096f 083a
00000280: 7b45 43bc c45b 523a 1382 d43c 5ffa 273d
00000290: 50a2 89ba 206d 32bc c078 06bc 4ba4 e53a
000002a0: 4f67 263d 7a53 c5bc 1b13 2f3d 40b1 4cbd
000002b0: ddd0 3bbb 5f2a a4bc 16f6 543d a0d4 c5bc
000002c0: 3568 ecbc dcb4 3ebb 3f51 e33c 3e19 ef3c
000002d0: 0294 98bc c3fd af3b 02b8 61bb d700 1a3d
000002e0: 7626 6d3a eb52 60bd dd3d 503c 3e3f 16bd
000002f0: 09e2 a1bb e2da 263d d446 48bd 4a09 923b
00000300: 71d1 0b3d 9c57 0f3c 81aa 1ebd e64d 083d
00000310: 06f7 5dbd d1de 2fbb 4f18 5a3d a764 053d
00000320: 4f56 9bbc 3173 e4bc cb92 dfbb 45ef 36bc
00000330: 5109 443d fdd3 f43b bc22 3b3b d92e 4dbc
00000340: 7d66 2fbd c7de 7cbd 67bb 523d a171 5abd
00000350: bc69 2a3d ef94 4cbd a0d8 72bd 1058 d43c
00000360: 45d6 43bd fb99 053c 6f5a a0bc f275 403c
00000370: 9eb7 93bd f566 fdbc b975 323d b525 893c
00000380: df03 e73c 6b8a c43c 40fa 3cbd d596 8abd
00000390: 0b88 17bd 7113 993c 5950 36bc 88b2 9d3c
000003a0: 67ef 4cbd ccd3 93bc 8ab3 453c d947 aa3c
000003b0: ce91 03bc 37ad 463d 9eab 283d f1c4 f9bc
000003c0: 3bf0 b23c a7a4 a03c b796 6fbd 5ec5 0f3d
000003d0: 94ad 79bb 7c39 14bd 4ffe 523d 0724 373d
000003e0: eb1d d43a 2056 4abd e2e0 28bd 75e0 f3bc
000003f0: 49eb 833a 4f8b 51ba 180e 0abd bdd2 45bd

weight f4 [256, 256]
0.016814606 -0.021288829 0.07244546 0.018348796 0.029079987 0.10343695 -0.0030961388 -0.04316871
0.06667164 -0.066961505 -0.006035666 0.09220081 -0.030966105 -0.04852106 -0.008498677 -0.03086648
-0.009431743 -0.053527653 0.013396484 0.04672094 -0.0718268 -0.051252596 0.0062554725 -0.010084941
-0.034257136 -0.0049889064 0.0091182 -0.040265273 0.026353698 0.08154808 -0.0037206588 -0.079949655
0.029123254 -0.05786946 0.05945963 -0.07621342 0.005228351 0.08200077 0.036214396 0.05219608
-0.007943057 -0.039083734 -0.019130372 -0.041704834 0.13426217 -0.030377898 0.047498886 0.03548415
-0.013054821 -0.050993286 -0.0653695 0.018029861 -0.045208547 0.0041722474 0.060929954 0.06297225
0.08096858 0.0035210443 -0.03760442 0.02499981 0.0016062602 -0.028952979 -0.007005092 0.0021671504
-0.08006388 -0.046012525 0.04160102 -0.024037953 -0.06521782 0.033042576 0.018201968 -0.021892445
0.035078976 -0.117544726 0.06763808 0.00404324 -0.05513583 0.021091675 0.007131048 -0.017158698
0.045561098 -0.029882487 -0.05461586 -0.11559411 -0.05932097 0.011324122 0.03343677 -0.0043739076
0.02111119 -0.06596888 -0.095897585 0.014362737 -0.017334303 0.025159167 -0.05157494 -0.08510584
-0.13987722 0.004785719 -0.044240844 0.11350593 0.07373522 -0.07283749 0.08602608 0.01944661
0.018594248 -0.032065153 0.031055514 0.020509887 -0.011561915 0.046533197 0.117774025 0.047906075
-0.025515841 0.009779615 -0.075370505 -0.039356925 0.067897454 -0.045795865 -0.0039174426 -0.021709202
0.047967087 0.065576 0.08648614 0.05409004 0.07049428 0.051541816 -0.031023886 0.09110782
0.10051859 0.05787615 -0.09408833 -0.058456063 -0.01820245 -0.022058984 0.053125717 0.03768925
-0.009729807 0.054829847 0.017048107 0.037615728 -0.07160141 0.009830068 0.044872027 -0.004441284
0.0022270079 0.016873809 -0.010306036 -0.035834014 0.082330145 -0.0010597298 0.07405517 0.018427081
-0.043875575 -0.017888675 -0.08548825 -0.08050043 -0.039621703 -0.034170564 0.015214449 0.03857534
-0.015510088 -0.01574427 0.027031725 -0.016180089 -0.06677926 0.08781386 -0.040683273 -0.0015246117
-0.030258516 -0.057589866 0.0038821965 -0.043608706 0.029769883 0.05570709 -0.021612504 0.024328433
0.008769189 0.07411342 -0.008205337 0.043337386 0.06219728 0.08086134 -0.057275098 -0.020405417
-0.0022905213 0.054005608 -0.03348781 0.044194344 -0.059777305 -0.062611744 -0.0045568976 -0.06731183
0.05861222 -0.13261694 -0.0051212297 0.04333701 0.07025609 0.0077241845 -0.002703749 -0.038245864
0.03677672 0.045125864 -0.089485794 -0.0017288667 0.019331763 -0.011782593 0.08449624 0.04642843
0.04632267 0.009465057 0.020424498 -0.049008183 -0.013771042 0.04078965 0.070600964 0.05373135
0.036994196 -0.03674382 0.03843993 -0.033693314 0.015560688 -0.0013341128 0.06349587 0.028973153
-0.019966492 0.037693642 0.05854011 0.044008818 0.1173156 -0.033683375 0.023763139 0.09773739
0.03251491 0.058951825 -0.05121046 0.07399384 -0.0014383608 -0.011712653 0.017187417 -0.03223037
-0.04533054 0.02225495 -0.083654195 0.012063767 0.036523227 0.026077045 -0.040919986 -0.022835048
-0.031561006 0.0784585 -0.03331973 0.042252775 -0.021103358 -0.029383918 -0.082556084 0.04841929
00000000: c9be 893c e965 aebc 495e 943d 3750 963c
00000010: 2739 ee3c c0d6 d33d 97e8 4abb acd1 30bd
00000020: 248b 883d 1d23 89bd d6c6 c5bb c7d3 bc3d
00000030: a1ac fdbc 05be 46bd 093e 0bbc b3db fcbc
00000040: 9987 1abc d03f 5bbd ed7c 5b3c 755e 3f3d
00000050: ee19 93bd 3eee 51bd b5fa cc3b 4f3b 25bc
00000060: 3651 0cbd fb79 a3bb 8164 153c 33ed 24bd
00000070: b6e3 d73c ae02 a73d 4cd6 73bb a5bc a3bd
00000080: e493 ee3c 8708 6dbd f18b 733d c815 9cbd
00000090: 9652 ab3b 05f0 a73d 8c55 143d 8fcb 553d
000000a0: 9923 02bc 4416 20bd 4cb7 9cbc b0d2 2abd
000000b0: 067c 093e 12db f8bc 318e 423d d457 113d
000000c0: e3e3 55bc 56de 50bd 72e0 85bd 5cb3 933c
000000d0: 992c 39bd 59b7 883b b091 793d 98f7 803d
000000e0: dbd2 a53d 52c1 663b 1807 1abd 67cc cc3c
000000f0: 2689 d23a cc2e edbc f98a e5bb c006 0e3b
00000100: 88f8 a3bd a177 3cbd d565 2a3d 3eeb c4bc
00000110: ec90 85bd a757 073d 4b1c 953c c957 b3bc
00000120: f9ae 0f3d 4abb f0bd d585 8a3d 287d 843b
00000130: 1cd6 61bd 73c8 ac3c 91ab e93b 6690 8cbc
00000140: 469e 3a3d 1ecc f4bc e1b4 5fbd 9bbc ecbd
00000150: 8cfa 72bd cf88 393c fff4 083d ff52 8fbb
00000160: 60f1 ac3c b11a 87bd f465 c4bd af51 6b3c
00000170: ab00 8ebc 991a ce3c 3f40 53bd f84b aebd
00000180: f93b 0fbe 85d1 9c3b e335 35bd cc75 e83d
00000190: 7e02 973d d22b 95bd 712e b03d 7f4e 9f3c
000001a0: f752 983c c056 03bd 2268 fe3c 5a04 a83c
000001b0: 306e 3dbc 9899 3e3d 8233 f13d 2939 443d
000001c0: 9906 d1bc ae3a 203c da5b 9abd ba34 21bd
000001d0: d20d 8b3d 7294 3bbd e45d 80bb 7fd7 b1bc
000001e0: 2379 443d b64c 863d a51f b13d 858d 5d3d
000001f0: 4e5f 903d 831d 533d ce25 febc bd96 ba3d
00000200: b1dc cd3d 8b0f 6d3d 62b1 c0bd a06f 6fbd
00000210: 4e1d 95bc 0bb5 b4bc 5a9a 593d 0b60 1a3d
00000220: c569 1fbc 4395 603d 79a8 8b3c f312 1a3d
00000230: c3a3 92bd 4b0e 213c bbcb 373d 3188 91bb
00000240: fef2 113b f13a 8a3c a6da 28bc b0c6 12bd
00000250: b59c a83d a2e6 8aba 3daa 973d 64f4 963c
00000260: e0b6 33bd 458b 92bc 7714 afbd 69dd a4bd
00000270: 5e4a 22bd 6ff6 0bbd 0646 793c 2d01 1e3d
00000280: 061e 7ebc 21fa 80bc a371 dd3c 1b8c 84bc
00000290: 91c3 88bd c1d7 b33d 81a3 26bd 7bd5 c7ba
000002a0: b5e0 f7bc 5ae3 6bbd 736c 7e3b 0b9f 32bd
000002b0: f8df f33c 1e2d 643d b50c b1bc 6c4c c73c
000002c0: a5ac 0f3c c7c8 973d ae6f 06bc 8b82 313d
000002d0: 93c2 7e3d a19a a53d 4b99 6abd 4329 a7bc
000002e0: 921c 16bb fc34 5d3d 842a 09bd 2105 353d
000002f0: 0cd9 74bd 963a 80bd 0752 95bb c9da 89bd
00000300: 5e13 703d bccc 07be fdcf a7bb 2682 313d
00000310: 6de2 8f3d 281b fd3b 6231 31bb b2a7 1cbd
00000320: 30a3 163d e6d5 383d 5444 b7bd 249b e2ba
00000330: a55d 9e3c c70b 41bc 5d0c ad3d bd2b 3e3d
00000340: d7bc 3d3d 5413 1b3c 4751 a73c cebc 48bd
00000350: f09f 61bc 0c13 273d 3d97 903d 6715 5c3d
00000360: 3a87 173d b080 16bd 3073 1d3d 0002 0abd
00000370: 42f2 7e3c 66dd aeba 1f0a 823d 1b59 ed3c
00000380: c590 a3bc a664 1a3d c1c7 6f3d 9742 343d
00000390: 2943 f03d 94f7 09bd eaaa c23c 8a2a c83d
000003a0: 5b2e 053d 7877 713d 0fc2 51bd 158a 973d
000003b0: 6187 bcba 6de6 3fbc a0cc 8c3c fe03 04bd
000003c0: 84ac 39bd 0350 b63c e452 abbd 1ba7 453c
000003d0: 6199 153d 879f d53c b79b 27bd 9110 bbbc
000003e0: 1d46 01bd daae a03d 457a 08bd 3f11 2d3d
000003f0: f3e0 acbc 8bb6 f0bc 2a13 a9bd 4e53 463d

bias f4 [256]
-0.033174984 0.037192307 -0.021450013 -0.022252737 -0.042537905 -0.034695093 -0.05786437 -0.040930185
-0.028666234 0.0048949514 -0.0010389494 -0.042495504 0.002483342 -0.054924045 -0.042719953 -0.036527704
-0.049277842 -0.023681806 0.005080079 0.031903483 -0.033455774 0.050296407 -0.0015090763 0.012583824
-0.041891325 -0.03365119 -0.032651525 -0.016430527 -0.026555866 0.050734323 -0.020727433 0.016500488
0.0592427 -0.066116154 -0.051789753 -0.056120787 0.0063412944 -0.009259089 0.058106337 -0.055082362
0.011615421 0.02756303 0.026624966 0.045588996 -0.05656065 -0.039781798 -0.012723256 0.031113261
0.038514443 0.006871036 0.015397791 -0.024230616 -0.0093449475 -0.05826041 -0.01526426 -0.05314307
-0.013036578 0.028530974 -0.011016616 -0.0035642348 -0.03655273 -0.0676881 -0.053572237 0.024999036
0.018592745 0.046809386 -0.05418199 -0.07511601 -0.055291023 -0.026624918 -0.020503582 0.04204439
0.025958456 0.028725095 0.04730752 0.04282586 0.020193242 0.0063442145 0.03265047 -0.009381809
-0.069038026 -0.020006923 -0.017693598 0.014536458 0.042696126 0.02851133 -0.048777293 -0.053106807
-0.0071031335 0.03702714 -0.06723754 -0.0255801 0.040057264 -0.025540045 -0.009822159 -0.051165882
-0.027035039 -0.009557575 -0.020752858 -0.023926146 -0.00088822184 -0.02636175 -0.0025798255 0.031631347
0.04938937 0.0536847 0.008568789 -0.010352644 0.005664365 0.003580819 -0.027695606 -0.0026083898
0.01693627 0.017219331 -0.044767685 -0.018032737 0.014213705 -0.0609808 -0.024444984 -0.04182359
-0.049626946 -3.9266302e-05 -0.07187933 -0.058803674 -0.0033626084 0.02306802 0.055632725 -0.044390734
-0.015184242 0.015166221 -0.026839672 -0.041958228 -0.011977623 0.043839727 -0.043371387 -0.047221143
-0.03417058 -0.037646722 0.029639376 -0.014609031 -0.051018685 -0.04172012 -0.04398748 0.017406503
0.032456063 -0.045945566 -0.0304916 0.035475057 0.015453031 0.040713105 0.03147541 0.03176096
0.04822302 -0.013338971 -0.033074763 0.026561964 -0.0091988025 -0.020947313 -0.05944405 0.026667008
0.032860495 0.032037813 -0.04902281 -0.063873865 0.04548268 0.04784661 -0.022512605 0.018426009
-0.042544942 -0.047716804 -0.0018174056 0.018232092 -0.014092997 -0.0547444 -0.026714094 -0.06722689
0.015595007 0.035618313 -0.016365314 0.042942453 0.03866611 -0.040054634 -0.027499435 0.036063332
-0.012788665 -0.047290806 -0.035784468 -0.0058142855 0.023323271 0.006753336 -0.018174302 0.049502835
0.025033806 -0.055622607 -0.020002441 -0.03277837 0.014746432 -0.028470356 -0.059881054 0.0033303911
0.0149635915 -0.0033178763 0.03540742 -0.032453418 -0.027226213 0.01599599 -0.030125484 -0.019740606
0.0010277817 0.013263287 -0.06642801 0.002734288 0.011929 -0.009314173 -0.045463864 -0.06360373
0.010796532 -0.01792588 -0.01870325 -0.01648244 -0.0041805576 0.021853559 0.013547901 -0.02048202
-0.01652208 -0.013763015 0.009810179 -0.032552406 -0.05166107 -0.05849087 0.045453735 0.023085125
0.03790057 -0.050118353 0.0218128 -0.044459768 0.031600215 0.022462977 -0.03215656 0.007206661
0.008136178 -0.029522292 -0.031663742 -0.04341927 0.005698729 -0.052641932 0.012067089 -0.034764748
0.0431179 -0.011697287 -0.05013205 0.011984145 -0.056248233 -0.036144577 -0.029446516 0.029060068
00000000: 7ee2 07bd f656 183d f0b7 afbc 5f4b b6bc
00000010: 3a3c 2ebd 711c 0ebd 3103 6dbd 69a6 27bd
00000020: 73d5 eabc d465 a03b 5b2d 88ba c40f 2ebd
00000030: 91bf 223b 09f8 60bd 1efb 2ebd 139e 15bd
00000040: 90d7 49bd 5900 c2bc cb76 a63b 3aad 023d
00000050: ec08 09bd 9b03 4e3d 33cc c5ba 622c 4e3c
00000060: 3d96 2bbd d5d5 09bd 9bbd 05bd 5099 86bc
00000070: b08b d9bc cbce 4f3d 94cc a9bc 082c 873c
00000080: 79a8 723d e867 87bd 7e21 54bd e9de 65bd
00000090: a2ca cf3b 6fb3 17bc e900 6e3d 0b9e 61bd
000000a0: 9b4e 3e3c ddcb e13c 9a1c da3c 87bb 3a3d
000000b0: 24ac 67bd 3df2 22bd 3475 50bc 3de1 fe3c
000000c0: 52c1 1d3d 6d26 e13b 0447 7c3c 497f c6bc
000000d0: 8d1b 19bc 78a2 6ebd f216 7abc 8cac 59bd
000000e0: 5f97 55bc cab9 e93c 097f 34bc f095 69bb
000000f0: 51b8 15bd 0fa0 8abd 906e 5bbd c7ca cc3c
00000100: d04f 983c 33bb 3f3d efed 5dbd 6cd6 99bd
00000110: d778 62bd 801c dabc 21f7 a7bc bd36 2c3d
00000120: d4a6 d43c e450 eb3c 88c5 413d 2b6a 2f3d
00000130: 4c6c a53c 21e3 cf3b 80bc 053d 29b6 19bc
00000140: cf63 8dbd 8fe5 a3bc 2af2 90bc 532a 6e3c
00000150: 22e2 2e3d 9890 e93c b3ca 47bd 8686 59bd
00000160: 67c1 e8bb c5a9 173d d6b3 89bd 5c8d d1bc
00000170: 1613 243d 5b39 d1bc 1fed 20bc 5193 51bd
00000180: 9678 ddbc 6097 1cbc e601 aabc c400 c4bc
00000190: 8fd7 68ba 99f4 d7bc 4a12 29bb df8f 013d
000001a0: 824c 4a3d 7de4 5b3d 1b64 0c3c 239e 29bc
000001b0: 239c b93b 2cac 6a3b e5e1 e2bc 85f1 2abb
000001c0: efbd 8a3c 8e0f 8d3c 525e 37bd 64b9 93bc
000001d0: 9ae0 683c 01c7 79bd d940 c8bc 364f 2bbd
000001e0: a045 4bbd dfb1 24b8 7835 93bd 1fdc 70bd
000001f0: 355f 5cbb 25f9 bc3c 24df 633d 0fd3 35bd
00000200: 54c7 78bc be7b 783c dfde dbbc 64dc 2bbd
00000210: cb3d 44bc 4991 333d 32a6 31bd f56a 41bd
00000220: 73f6 0bbd 7333 1abd 47ce f23c b85a 6fbc
00000230: f8f8 50bd b7e2 2abd 372c 34bd 1598 8e3c
00000240: a6f0 043d 6b31 3cbd 85c9 f9bc 4b4e 113d
00000250: b62e 7d3c c9c2 263d 5cec 003d c817 023d
00000260: 8085 453d b38b 5abc 6779 07bd 7a98 d93c
00000270: 93b6 16bc b399 abbc 9b7b 73bd c574 da3c
00000280: ba98 063d 153a 033d 24cc 48bd 4dd0 82bd
00000290: 0c4c 3a3d cffa 433d 5b6c b8bc 24f2 963c
000002a0: 9b43 2ebd b272 43bd 0336 eeba 785b 953c
000002b0: 50e6 66bc aa3b 60bd 84d7 dabc 40ae 89bd
000002c0: 3382 7f3c 82e4 113d 8d10 86bc 6de4 2f3d
000002d0: 5b60 1e3d 5410 24bd 7f46 e1bc 25b7 133d
000002e0: 8c87 51bc 01b4 41bd bc92 12bd c385 bebb
000002f0: 7210 bf3c 174b dd3b 46e2 94bc 7cc3 4a3d
00000300: b213 cd3c 88d4 63bd 29dc a3bc 9d42 06bd
00000310: 059b 713c aa3a e9bc d645 75bd b142 5a3b
00000320: da29 753c ba70 59bb 5f07 113d e0ed 04bd
00000330: 8209 dfbc 060a 833c b8c9 f6bc 0db7 a1bc
00000340: a2b6 863a 424e 593c 690b 88bd be31 333b
00000350: da71 433c 799a 18bc 5138 3abd ac42 82bd
00000360: f0e3 303c 4cd9 92bc 8f37 99bc 2f06 87bc
00000370: 0ffd 88bb 3c06 b33c 04f8 5d3c e9c9 a7bc
00000380: 5059 87bc 457e 61bc dfba 203c ac55 05bd
00000390: 8f9a 53bd 1f94 6fbd b22d 3a3d 041d bd3c
000003a0: a13d 1b3d e748 4dbd c2b0 b23c 721b 36bd
000003b0: 3a6f 013d 4704 b83c 99b6 03bd db25 ec3b
000003c0: 9b4d 053c bcd8 f1bc d7b1 01bd 68d8 31bd
000003d0: 67bc ba3b 119f 57bd 0ab5 453c 7b65 0ebd
000003e0: 659c 303d faa5 3fbc 4457 4dbd 2659 443c
000003f0: 8c64 66bd 560c 14bd d239 f1bc 610f ee3c

weight f4 [4, 256]
0.056454625 -0.0018978773 -0.009556692 0.014044106 -0.006331515 0.02554022 -0.0014477109 0.0013366194
-0.0055846563 0.0037987127 0.010350629 0.0018950804 -0.022552319 0.033440538 0.012896265 0.021499319
-0.0031046038 0.04292233 0.0072349953 -0.069446295 0.02772126 0.011437235 -0.05173884 0.0016853962
-0.05994112 -0.0062016984 0.0007203132 -0.0041806945 -0.003794675 -0.048990797 0.010562699 -0.0015232137
-0.011312596 0.041375656 -0.015147287 0.0680054 -0.00030822356 -0.0052144425 0.00792113 0.0056122635
-0.031309724 0.005813644 0.05471954 -0.031374827 -0.009181504 -0.01112196 -0.01586812 0.0075206757
0.009770353 0.004475106 -0.051641062 0.015273505 -0.02456797 -0.011222035 -0.009961508 0.008622207
-0.00776314 -0.040298812 0.000760632 0.0023856382 0.014264802 -0.008744793 -0.0198803 -0.0133188395
0.03991698 0.00045589308 0.0051269946 0.056011185 -0.04460661 0.000781769 -0.033522904 -0.014943933
0.012098755 -0.019892965 -0.014832588 -0.024956701 -0.009149166 0.013181604 -0.027224801 0.014251424
0.047056373 -0.058610618 -0.005902474 0.010070277 -0.010855322 -0.024335606 -0.038557924 0.021546917
0.020661443 -0.01336133 -0.016177347 -0.035660475 0.01771449 -0.024057165 -0.006428317 0.0022403756
-0.043164413 0.03010464 0.023759536 -0.02485224 -0.0009882931 -0.0029059472 -0.0027398055 0.01620563
-0.058876507 -0.0120295165 0.03732189 0.05696402 -0.013213866 -0.017045615 0.0045596114 -0.025740815
0.04033483 0.0009582449 0.017958323 0.03720204 -0.0014221058 0.01584997 -0.003800152 0.024166074
0.0014234505 0.000878182 -0.0056431997 0.027581949 0.01922458 -0.009680489 -0.021634365 -0.004080598
-0.0083745355 -0.02974607 0.01969655 0.000491626 -0.011377252 -0.004944716 -0.031541802 -0.006678273
-0.048500642 -0.0028497383 -0.009364503 -0.027822845 0.044246316 0.00086888205 0.0013046762 0.018484
-0.011280604 -0.02760902 0.00049490103 -0.02235744 -0.0020776447 0.0024435064 -0.04808446 0.038234208
-0.050851893 -0.0083198035 -0.0045607947 0.011746837 0.012325039 -0.055582296 0.0025283897 0.0054501346
-0.020475505 -0.022823652 -0.0028791968 0.0025769626 -0.0333951 0.017877487 -0.006237641 0.013196568
0.0013258826 -0.03831795 -0.022693705 -0.027041255 -0.02854234 0.013643797 0.0039673555 -0.0022574728
-0.027462587 -0.0026976124 0.01661102 -0.02560433 -0.008891263 0.07308541 -0.0018205979 -0.0115739
0.0013342522 -0.008295677 -0.007657106 -0.0053289477 -0.013587135 0.02557497 0.0005116671 0.009907928
-0.0076468415 -0.027562149 -0.0014888501 -0.0055551566 -0.004424307 0.004137497 -0.0012531108 0.007446818
0.015941361 -0.004688142 -0.014201565 -0.024708893 0.0006567396 -0.013589403 -0.018044943 -0.002181557
0.0038316345 -0.024124745 -0.05911411 0.045490067 0.007892749 -0.017514866 -0.007078232 0.011973303
0.026380261 -0.044447668 -0.0056572016 0.0019689393 -0.00306853 -0.010787337 -0.00477663 0.054873962
0.0017442221 0.017455999 -0.0015288021 0.01613293 0.007781503 0.021312749 0.01081847 -0.03400206
-0.0033871739 -0.012620521 0.002877306 0.021404255 -0.051465522 -0.01642021 -0.0076715355 -0.020843508
0.011201537 0.016007936 0.00598129 -0.029469006 0.0033151188 0.0027587938 -0.014525005 -0.0006814279
0.0043512834 0.0067500677 0.009382835 0.004841177 -0.009243219 0.04464664 0.029266227 0.0017243405
00000000: f73c 673d 32c2 f8ba ac93 1cbc 4019 663c
00000010: 9978 cfbb b939 d13c 1ec1 bdba 8131 af3a
00000020: 7eff b6bb d3f3 783b af95 293c 5964 f83a
00000030: a4bf b8bc f2f8 083d db4a 533c 571f b03c
00000040: 9c76 4bbb 53cf 2f3d 8a13 ed3b dc39 8ebd
00000050: b217 e33c 3e63 3b3c 1bec 53bd 83e8 dc3a
00000060: d284 75bd 9e37 cbbb 67d3 3c3a 35fe 88bb
00000070: 15b0 78bb 93aa 48bd 2c0f 2d3c 92a6 c7ba
00000080: 7758 39bc 8579 293d 542c 78bc 6a46 8b3d
00000090: 1199 a1b9 eadd aabb a1c7 013c 14e7 b73b
000000a0: a03e 00bd 6180 be3b 9921 603d e482 00bd
000000b0: 056e 16bc e238 36bc dcfd 81bc 0070 f63b
000000c0: d513 203c e9a3 923b 9485 53bd b93d 7a3c
000000d0: c442 c9bc a0dc 37bc 9835 23bc 2844 0d3c
000000e0: f061 febb 5e10 25bd 2665 473a 5e58 1c3b
000000f0: ebb6 693c 5246 0fbc 03dc a2bc 4337 5abc
00000100: fd7f 233d ef04 ef39 5900 a83b fc6b 653d
00000110: 6cb5 36bd a1ef 4c3a 504f 09bd 66d7 74bc
00000120: db39 463c 92f6 a2bc 6204 73bc ff71 ccbc
00000130: 62e6 15bc a8f7 573c 8c06 dfbc ce7e 693c
00000140: 2fbe 403d b011 70bd 8a69 c1bb cefd 243c
00000150: 85da 31bc 775b c7bc eaee 1dbd 2983 b03c
00000160: 3042 a93c 7be9 5abc 5b86 84bc b810 12bd
00000170: fa1d 913c 8813 c5bc a2a4 d2bb 44d3 123b
00000180: 2bcd 30bd 029e f63c 5ca3 c23c ed96 cbbc
00000190: 9d89 81ba b471 3ebb 4f8e 33bb abc1 843c
000001a0: 7e28 71bd 7317 45bc d7de 183d 1b53 693d
000001b0: f97e 58bc 3fa3 8bbc cb68 953b 67de d2bc
000001c0: 2236 253d ba32 7b3a 551d 933c 2b61 183d
000001d0: f465 baba ccd7 813c f90b 79bb eef7 c53c
000001e0: 1393 ba3a cc35 663a 97ea b8bb 8af3 e13c
000001f0: de7c 9d3c ea9a 1ebc 8d3a b1bc 89b6 85bb
00000200: 5935 09bc 08ae f3bc a95a a13c 76e0 003a
00000210: a767 3abc 4907 a2bb fa31 01bd 6ad5 dabb
00000220: 9ca8 46bd adc2 3abb 936d 19bc bcec e3bc
00000230: a03b 353d b0c5 633a ab01 ab3a c26b 973c
00000240: 48d2 38bc 502c e2bc 3fbc 013a f326 b7bc
00000250: 1829 08bb 3c23 203b 36f4 44bd 799b 1c3d
00000260: 134a 50bd c94f 08bc b872 95bb ce75 403c
00000270: f6ee 493c 43aa 63bd 57b3 253b 0b97 b23b
00000280: 3fbc a7bc abf8 babc e8b0 3cbb 42e2 283b
00000290: 4dc9 08bd cf73 923c 2065 ccbb 6b36 583c
000002a0: 3dc9 ad3a 48f3 1cbd 26e8 b9bc 9f85 ddbc
000002b0: a0d1 e9bc 3b8a 5f3c 9700 823b 1cf2 13bb
000002c0: 38f9 e0bc 6dca 30bb d513 883c 2cc0 d1bc
000002d0: a9ac 11bc cead 953d 21a1 eeba 74a0 3dbc
000002e0: 13e2 ae3a 97ea 07bc 76e8 fabb 749e aebb
000002f0: 939c 5ebc 9982 d13c 6621 063a dd54 223c
00000300: 5b92 fabb 04ca e1bc 8525 c3ba 0808 b6bb
00000310: c7f9 90bb d793 873b 6c3f a4ba 7004 f43b
00000320: 7597 823c fc9e 99bb aead 68bc 4e6a cabc
00000330: 0c29 2c3a 16a6 5ebc fdd2 93bc 74f8 0ebb
00000340: 291c 7b3b 42a1 c5bc a321 72bd cb53 3a3d
00000350: 9750 013c 567b 8fbc 83f0 e7bb ac2b 443c
00000360: 6b1b d83c c20e 36bd 0c60 b9bb 5209 013b
00000370: 6419 49bb 5fbd 30bc 4785 9cbb 85c3 603d
00000380: 629e e43a e2ff 8e3c 1662 c8ba 3529 843c
00000390: fafb fe3b 1398 ae3c f43f 313c be45 0bbd
000003a0: 59fb 5dbb 4dc6 4ebc 2f91 3c3b fa57 af3c
000003b0: 83cd 52bd ad83 86bc 8161 fbbb 01c0 aabc
000003c0: a786 373c 1323 833c b2fe c33b fc68 f1bc
000003d0: 7742 593b e1cc 343b 49fa 6dbc daa1 32ba
000003e0: 3695 8e3b ac2f dd3b 76ba 193c bca2 9e3b
000003f0: df70 17bc 65df 363d babf ef3c 4403 e23a

bias f4 [4]
0.02760425 0.049630366 -0.0017159799 0.038574386
00000000: 4f22 e23c 3649 4b3d bbea e0ba 2d00 1e3d
